FashionMNISTMLWebapp/FashionMNISTmodel.pth (torch, 34655 bytes, 10 tensors)

conv_block_1.0.weight f4 [10, 1, 3, 3]
0	0xbe0f88d9	-0.14017047
1	0xbd892502	-0.06696512
2	0xbde0a759	-0.10969419
3	0x3dbf06c0	0.09327459
4	0xbea1159e	-0.31461805
5	0x3e3c4a16	0.18387637
6	0xbea10d34	-0.31455386
7	0xbdad443c	-0.0846028
8	0xbe079853	-0.13241701
9	0x3e81325d	0.25233737
10	0x3eaa1394	0.33218062
11	0x3d79e658	0.06101069
12	0xbe56113a	-0.20905009
13	0xbc8a4fca	-0.01688375
14	0x3d41e189	0.047334228
15	0xbf72b694	-0.9480984
16	0xbe863171	-0.26209596
17	0xbea76b44	-0.32699025
18	0xbe57637b	-0.21034043
19	0x3e9f3e00	0.3110199
20	0x3ec57df1	0.38572648
21	0xbf2ca7f0	-0.6744375
22	0x3dd6c330	0.10486448
23	0x3ee6e155	0.4509379
24	0xbf316e69	-0.693091
25	0x3e93b854	0.2885157
26	0x3f375a3e	0.71622074
27	0xbe883156	-0.2660014
28	0x3e3946a5	0.18093355
29	0xbe4f265b	-0.20229475
30	0x3d95cfbb	0.07315012
31	0xbe52112e	-0.20514366
32	0xbe862ca5	-0.26205936
33	0x3de15086	0.11001687
34	0x3e47129d	0.19440694
35	0xbe5973c2	-0.21235564
36	0x3e055637	0.1302117
37	0xbec19774	-0.37810862
38	0xbdcde0fb	-0.10052677
39	0x3e8eb5db	0.2787312
40	0x3ed93f5d	0.42431155
41	0x3eb36a8f	0.35042235
42	0xbe523ab8	-0.20530212
43	0x3ec1572a	0.37761813
44	0xbcfb662e	-0.030688372
45	0x3eb50576	0.3535573
46	0xbdfd6a01	-0.12373734
47	0x3e3f5fe0	0.18688917
48	0x3f34b6d3	0.7059147
49	0xbf1176cf	-0.5682191
50	0x3e1c8203	0.1528397
51	0x3f39df40	0.7260628
52	0xbea8aa9f	-0.32942674
53	0xbee368df	-0.44415948
54	0xbe975cea	-0.29563075
55	0xbe69b85b	-0.22824232
56	0xbccdb1d0	-0.025109202
57	0x3ccf0030	0.025268644
58	0x3c2b4380	0.010453105
59	0x3ccafa00	0.024777412
60	0xbe0ef26e	-0.13959667
61	0xbe9ea09f	-0.3098192
62	0xbe8bfdae	-0.2734198
63	0xbf9bae45	-1.2162558
64	0xbf907554	-1.1285806
65	0xbcd26d57	-0.025686903
66	0xbfafdaed	-1.3738686
67	0xbfcde342	-1.6084979
68	0xbf0d77e4	-0.55261064
69	0x3ced8e78	0.028998598
70	0xbe80a95a	-0.25129205
71	0x3e95f36a	0.29287273
72	0xbe1f14d3	-0.15535288
73	0xbe1a022a	-0.15039888
74	0x3eb6e7d4	0.35723746
75	0x3ecac64d	0.39604416
76	0xbe4fb7e0	-0.20284986
77	0xbe10ea7f	-0.14151953
78	0xbd3fb38f	-0.0468021
79	0x3eac602c	0.33667123
80	0x3e2b6ef3	0.16741543
81	0xbf57dd7d	-0.8432234
82	0xbf63f21e	-0.89041317
83	0x3e680666	0.22658691
84	0x3ea798d3	0.32733783
85	0xbbe26b1f	-0.0069097425
86	0x3e9d27b6	0.3069436
87	0x3e91d519	0.28482893
88	0xbeba1aa1	-0.3634844
89	0xbdfa1006	-0.122100875

conv_block_1.0.bias f4 [10]
0	0xbd329e33	-0.0436079
1	0x3e8c57ba	0.2741068
2	0x3cec1e0e	0.028822925
3	0xbea39f4f	-0.3195748
4	0xbe4fe48f	-0.20302032
5	0xbd6fcf3b	-0.05854724
6	0xbdb5b7d0	-0.0887295
7	0x3ea31ae2	0.31856447
8	0xbd3d29c7	-0.04618242
9	0x3e8fdab2	0.2809654

conv_block_1.2.weight f4 [10, 10, 3, 3]
0	0xbcee859d	-0.029116446
1	0xbcb25dcc	-0.021773241
2	0xbdac28ed	-0.084062435
3	0xbdbef8ef	-0.09324824
4	0xbd8fc7e6	-0.070205495
5	0x3da87a08	0.082264006
6	0x3da21edd	0.07916043
7	0x3ba97343	0.005171211
8	0xbd77910e	-0.06044107
9	0x3d6db0b9	0.058029864
10	0xbdbf33cf	-0.093360536
11	0xbcb7afc8	-0.022422686
12	0xbe87b876	-0.2650792
13	0xbd8936d8	-0.06699914
14	0x3e12d26a	0.14338079
15	0x3e4236af	0.18966173
16	0x3e727d97	0.23680721
17	0x3e527525	0.205525
18	0x3dc8434e	0.09778462
19	0xbddfe222	-0.10931803
20	0xbe0b3bd0	-0.13597035
21	0xbdd09893	-0.10185351
22	0xbe94c15e	-0.29053777
23	0xbe36ea58	-0.17862833
24	0xbe0b2b3c	-0.13590711
25	0x3e124c3f	0.14286898
26	0x3e5d2a86	0.21598253
27	0x3cf7496e	0.030186381
28	0x3da05a6b	0.07829746
29	0xba23800e	-0.0006237038
30	0x3d783a7b	0.060602646
31	0xbd5bbcbe	-0.053646795
32	0xbd459c2e	-0.048244648
33	0xbd8fe6d4	-0.07026449
34	0x3d04cfe5	0.032424826
35	0x3c0f0826	0.00872997
36	0x3e8a5608	0.27018762
37	0x3f07ffb5	0.5312455
38	0x3f122f41	0.57103354
39	0x3d243d7f	0.04009771
40	0xbe1df3ef	-0.15425085
41	0xbd224cab	-0.039623898
42	0xbef2c57c	-0.47416294
43	0xbf04ff4d	-0.5195206
44	0xbeae4f33	-0.340448
45	0xbc192302	-0.009346725
46	0x3dc8082a	0.09767182
47	0x3de762cd	0.11298142
48	0x3d86c2f6	0.065801546
49	0x3d867e1b	0.065670215
50	0x3a193c60	0.00058454834
51	0x3d2f0aaf	0.042734798
52	0xbe5dab76	-0.21647438
53	0xbe255f35	-0.161496
54	0x3c7c9940	0.015417397
55	0xbd2934b6	-0.041310035
56	0x3d42050a	0.047368087
57	0xb80b0800	-3.3147633e-05
58	0x3d60aa2a	0.05484978
59	0x3dac23a7	0.08405238
60	0x3d8a097f	0.067400925
61	0xbcf6ea28	-0.030140951
62	0xbd343790	-0.0439983
63	0xbdae4494	-0.08509174
64	0xbe48f37b	-0.1962413
65	0xbd90be81	-0.07067586
66	0xbe740b04	-0.23832327
67	0xbdffba4f	-0.124867074
68	0xbe13e5f3	-0.14443187
69	0x3c9e18b1	0.019298883
70	0xbbb4f0ee	-0.005521885
71	0x3cfedbcf	0.031110672
72	0x3ea66366	0.3249771
73	0x3e130674	0.1435793
74	0x3e6dc652	0.23220184
75	0xbe04bb03	-0.12961964
76	0x3c8283c0	0.015931964
77	0xbcceb870	-0.025234431
78	0xbe8c17b2	-0.27361828
79	0xbec8ccb9	-0.3921869
80	0xbeabbb5e	-0.33541387
81	0xbdfaf593	-0.12253871
82	0xbe3ff750	-0.18746686
83	0xbdf1a878	-0.11799711
84	0xbe93950f	-0.2882466
85	0xbe257a6d	-0.16159983
86	0xbe7fa2a6	-0.24964389
87	0xbe55981f	-0.20858811
88	0xbdba8ffe	-0.091094956
89	0xbcb8b271	-0.022546025
90	0xbd7b15c7	-0.061300065
91	0xbdc799d5	-0.09746138
92	0xbbeddc2b	-0.007258912
93	0xbdc67e20	-0.09692025
94	0xbdafba72	-0.085804835
95	0xbd589ba5	-0.05288281
96	0x3d644317	0.055728044
97	0x3d72a041	0.05923486
98	0xbcbe4617	-0.02322678
99	0x3c5480e3	0.012970182
100	0xbe33bba4	-0.17552048
101	0x3d65fd2f	0.056149658
102	0x3d98309d	0.07431147
103	0x3c0093e4	0.00784776
104	0xbcc7cb54	-0.024388947
105	0x3cb4b5ff	0.022059439
106	0x3d9992d4	0.07498708
107	0x3bfcf6a4	0.0077198315
108	0xbdafb778	-0.08579916
109	0xbc9df7fc	-0.019283287
110	0x3d9399f1	0.07207096
111	0xbdbf3ba4	-0.093375474
112	0xbdc452a2	-0.095860735
113	0x3e33b7d2	0.1755059
114	0xbdc9fad0	-0.09862292
115	0xbd6ec538	-0.05829355
116	0xbcc6d5a0	-0.024271786
117	0x3cc396e4	0.023875661
118	0x3d0b613f	0.034028288
119	0xbd776d2e	-0.060406856
120	0xbd1dbd19	-0.038510416
121	0x3d055a74	0.032556966
122	0xbd86b1ca	-0.06576879
123	0x3d2178d8	0.039421886
124	0xbc1c9317	-0.009556553
125	0xbdd17ea0	-0.1022923
126	0x3da6e6c0	0.08149481
127	0xbda1c7e6	-0.07899456
128	0xbe54c204	-0.20777136
129	0x3da463c2	0.0802684
130	0xbb5f7965	-0.0034099456
131	0x3b3af475	0.0028527055
132	0x3d6aba4d	0.057306577
133	0xbd06e60e	-0.03293424
134	0xbe4e980c	-0.20175189
135	0x3cc952dc	0.024575643
136	0x3e9b2be7	0.30306932
137	0xbe701a53	-0.23447542
138	0xbd9c5a41	-0.07634402
139	0x3e9bca44	0.30427754
140	0x3cad98b1	0.021190973
141	0xbdde5e56	-0.10857837
142	0x3e2cdfca	0.16882244
143	0x3d52a17d	0.05142354
144	0xbd0f9334	-0.035052493
145	0xbd95e9b6	-0.073199674
146	0xbd28fc9a	-0.041256525
147	0x3d3f6e02	0.04673577
148	0x3db6465f	0.08900141
149	0x3cf188a4	0.0294841
150	0xbda8cd18	-0.082422435
151	0xbcbf99a4	-0.023388691
152	0x3c38c3e0	0.011277169
153	0xbe16844c	-0.14698905
154	0xbdc6ec40	-0.0971303
155	0xbded76df	-0.115949385
156	0xbb8d3fa8	-0.004310567
157	0xbbc44f3e	-0.0059908917
158	0xbdc2a1f8	-0.09503549
159	0xbd4b2285	-0.049593467
160	0x3c3e3978	0.011610381
161	0x3d81cabe	0.06337498
162	0x3da67413	0.08127608
163	0x3d9d0424	0.076668054
164	0x3cc9bc5c	0.02462595
165	0xbd9984fe	-0.07496069
166	0x3c53bf16	0.012923976
167	0xbdcf5199	-0.101229854
168	0x3cf0f000	0.029411316
169	0xbbb65599	-0.0055644033
170	0x3cc93e4c	0.024565838
171	0x3dae03cd	0.08496819
172	0x3e07f47f	0.13276862
173	0x3e14e945	0.1454211
174	0xbc63669d	-0.013879445
175	0x3c0d5398	0.008625887
176	0x3da3b73b	0.07993933
177	0xbd9622f5	-0.07330886
178	0xbccbdbf3	-0.024885153
179	0x3cba9699	0.022776889
180	0xbbefccc0	-0.0073181093
181	0x3d53ece5	0.051739592
182	0xbdc9517f	-0.09829997
183	0x3c30d70e	0.0107934605
184	0xbd083a06	-0.03325846
185	0xbcda95c8	-0.02668275
186	0x3d30c486	0.04315617
187	0x3ca021b0	0.019547313
188	0xbd930f5e	-0.071806654
189	0xbda5442d	-0.08069644
190	0xbd3d28ea	-0.046181597
191	0x3ccdacbf	0.025106786
192	0x3dad4569	0.084605046
193	0x3d1a141e	0.03761684
194	0xbd62441e	-0.055240743
195	0x3da6d41b	0.08145925
196	0x3d26928b	0.040667098
197	0xbd9c9675	-0.07645885
198	0xbdc3bc7f	-0.09557437
199	0xbce532db	-0.027978351
200	0xbb8e1868	-0.0043364055
201	0xbc42967d	-0.0118766995
202	0x3c094730	0.008378789
203	0xbd66c1b9	-0.056337092
204	0xbc2b034c	-0.010437798
205	0xbd75098a	-0.05982355
206	0xbc673d50	-0.014113739
207	0xbdaa3b85	-0.08312134
208	0x3d944579	0.07239813
209	0x3c8a6448	0.016893521
210	0xbca64d11	-0.02030042
211	0xbd187980	-0.037225246
212	0x3ce28540	0.02765143
213	0xbd743cfa	-0.059628464
214	0xbdb724dd	-0.08942578
215	0x3c7bc469	0.015366652
216	0xbdbe7bc7	-0.093009524
217	0xbceecef9	-0.029151427
218	0x3d6fd449	0.05855206
219	0x3d85f0d2	0.065400735
220	0x3dc32444	0.095284015
221	0xbd8e4dcd	-0.06948433
222	0x3d0443e0	0.032291293
223	0xbda0b1f9	-0.078464456
224	0x3d1b116f	0.037858423
225	0x3c057511	0.008145587
226	0xb923c972	-0.00015619936
227	0xbdc2ab4c	-0.095053285
228	0xbd92f5c5	-0.07175783
229	0x3cf3d40f	0.029764203
230	0x3c3d42c6	0.011551565
231	0xbd8ac2d6	-0.06775443
232	0x3c0499a1	0.008093269
233	0xbbdc33a8	-0.006720025
234	0xbd6c758f	-0.0577293
235	0xbdb40b76	-0.087912485
236	0xbda23c80	-0.07921696
237	0x3d83e2bb	0.0643973
238	0xbcd18de0	-0.025580347
239	0x3d253eda	0.040343143
240	0xbd8ffb86	-0.07030396
241	0x3dab2945	0.08357481
242	0xbd88b22e	-0.0667461
243	0xbccdf22c	-0.02513989
244	0x3d7ccf76	0.061721288
245	0xbd997671	-0.07493294
246	0xbd3295e3	-0.043599974
247	0xbd847e99	-0.06469459
248	0x3d9377d2	0.07200588
249	0xbdbb4f2f	-0.091459624
250	0xbcd9e744	-0.026599534
251	0xbce23da6	-0.027617287
252	0xbd9d36e3	-0.076764844
253	0xbd00692b	-0.031350296
254	0xbcaf6d6e	-0.021414485
255	0x3aef77fb	0.001827001

conv_block_1.2.bias f4 [10]
0	0x3dca1226	0.09866743
1	0xbe7749f1	-0.241493
2	0xbdf1eac2	-0.118123546
3	0x3d81954c	0.06327304
4	0x3ecf84a3	0.4053088
5	0x3d9534e2	0.07285477
6	0xbe46bb0d	-0.19407292
7	0x3b3c2bec	0.0028712703
8	0xbe8eeb7f	-0.27914044
9	0x3f88b8f6	1.0681446

conv_block_2.0.weight f4 [10, 10, 3, 3]
0	0x3d5ca02b	0.053863686
1	0xbd4fc4a4	-0.05072464
2	0xbdbd65d2	-0.09247936
3	0xbe799869	-0.24374546
4	0xbdef19ca	-0.11674841
5	0x3edcf2cd	0.43153992
6	0x3c10d3a9	0.008839526
7	0x3e58d888	0.2117635
8	0x3e93ccfb	0.28867325
9	0x3bf8ecf6	0.0075966073
10	0xbe0a56f6	-0.13509735
11	0x3c8363f1	0.016038867
12	0xbd77515c	-0.060380325
13	0xbe26cf19	-0.16289939
14	0xbdbdfb6a	-0.09276469
15	0xbe086199	-0.1331848
16	0xbccdad6e	-0.025107112
17	0x3dce9109	0.10086257
18	0xbd120a4c	-0.03565435
19	0xbdd3c472	-0.10340203
20	0xbd8b844f	-0.06812345
21	0xbd879acf	-0.06621324
22	0xbd29c403	-0.041446697
23	0x3c8532ff	0.016259668
24	0xbdc0574a	-0.09391649
25	0xbdb74aa0	-0.089497805
26	0x3dae203d	0.08502243
27	0xbbcca141	-0.006244809
28	0x3d60f065	0.054916758
29	0xbe1eadce	-0.15495989
30	0xbe111695	-0.1416877
31	0x3cc26fb1	0.0237349
32	0xbdc117a4	-0.09428337
33	0xbbda886e	-0.0066690957
34	0xbd6918ef	-0.056908544
35	0x3c8c8191	0.017151626
36	0xbe236a14	-0.15958434
37	0xbe7614fb	-0.24031441
38	0x3e6281cf	0.2211983
39	0xbe82529f	-0.2545366
40	0xbe43e6b3	-0.19130974
41	0x3e15c7ea	0.14627042
42	0xbdc7370e	-0.09727298
43	0x3e08f96e	0.133764
44	0x3df84fb3	0.121245764
45	0xbe85f40d	-0.26162758
46	0xbcff7bcd	-0.031186963
47	0x3f043f72	0.5165931
48	0xbdda5b07	-0.10661893
49	0xbe407e5f	-0.18798207
50	0xbd57276c	-0.05252783
51	0x3cb69548	0.02228798
52	0xbe4309d8	-0.19046724
53	0xbf15a0b0	-0.58448315
54	0xbdfbece3	-0.12301042
55	0x3dfc2a7d	0.123127915
56	0x3d858598	0.065196216
57	0x3cd2ee94	0.025748529
58	0x3d81a116	0.06329553
59	0x3c8148de	0.015781816
60	0xbe07b78e	-0.13253614
61	0x3bffe719	0.0078095314
62	0xbdcee6fb	-0.1010265
63	0xbd47485a	-0.048652984
64	0xbc74aa9d	-0.0149332555
65	0xbd92204c	-0.071350664
66	0xbd4f0372	-0.050540395
67	0x3dae621d	0.085148074
68	0xbd701ff7	-0.058624234
69	0xbd536472	-0.051609464
70	0xbb81f355	-0.003965775
71	0xbd5ab337	-0.05339357
72	0xbe2f5c6a	-0.17125097
73	0x3d8d0634	0.06885949
74	0xbde82f46	-0.11337142
75	0x3e13d16f	0.14435361
76	0x3d897d56	0.06713359
77	0xbdd87620	-0.105694056
78	0xbd8f7c1b	-0.07006093
79	0xbda4ac9e	-0.080407366
80	0x3e8c1387	0.27358648
81	0xbe30fd40	-0.17284107
82	0xbc40f965	-0.01177821
83	0x3efbfdc8	0.49217057
84	0xbdadaf3c	-0.08480689
85	0xbe6f1104	-0.23346335
86	0x3cb30ace	0.021855738
87	0x3d67e77f	0.056617256
88	0x3e045214	0.12921935
89	0xbc0d0a03	-0.008608344
90	0x3d84c425	0.06482724
91	0xbc9044f5	-0.017611006
92	0xbddf4b34	-0.10903016
93	0x3d69477d	0.056952942
94	0xbc4ba538	-0.012429528
95	0xbd0ed912	-0.034874983
96	0xbdb2dc26	-0.08733396
97	0xbcd81601	-0.02637768
98	0xbd177546	-0.036977075
99	0x3d99c039	0.07507367
100	0x3d7ee5e8	0.062230974
101	0xbda3ca2a	-0.07997544
102	0xbc9d5c9e	-0.019209202
103	0xbd754d72	-0.05988831
104	0xbdd4500d	-0.10366831
105	0xbcd744cf	-0.026277928
106	0x3dd6f8ed	0.104966976
107	0x3d8f3dbb	0.06994196
108	0xbd9956c7	-0.074872546
109	0xbdc05a9b	-0.093922816
110	0x3d900eb4	0.070340544
111	0xbd711ef7	-0.05886742
112	0x3d245236	0.040117465
113	0x3d16277e	0.036658756
114	0x3da90791	0.08253396
115	0xbdbc76e2	-0.092023626
116	0xbccae3dc	-0.024766855
117	0x3d48aac7	0.04899099
118	0xbc80af1d	-0.0157085
119	0xbcebb467	-0.028772546
120	0x3c1493ba	0.009068424
121	0xbdd8e935	-0.10591356
122	0xbd9d063c	-0.07667205
123	0x3da15e7d	0.0787935
124	0x3cd23d25	0.025663922
125	0xbdca9463	-0.09891584
126	0xbdd5d2f7	-0.10440629
127	0x3d6ca257	0.057772007
128	0xbbaa99f4	-0.005206341
129	0xbd284c1f	-0.04108822
130	0xbdad03cf	-0.08447992
131	0xbd81f07d	-0.063446976
132	0xbd41aeca	-0.047285832
133	0x3d8f4653	0.06995835
134	0xbd97cade	-0.07411741
135	0xbd5c7d1b	-0.053830247
136	0xbc997cfe	-0.018736359
137	0x3da11295	0.07864872
138	0x3d99023b	0.074711286
139	0xbd64527c	-0.055742726
140	0xbdd7ea97	-0.10542791
141	0x3d5ed823	0.054405343
142	0x3d6c5d4e	0.05770617
143	0xbdcee02f	-0.101013534
144	0x3d075f0f	0.03304964
145	0xbbcd8be1	-0.0062727784
146	0x3b9e9a23	0.004840152
147	0x3bf1d8a6	0.007380563
148	0xbcc888eb	-0.02447935
149	0xbd76c42f	-0.06024569
150	0xbd33e8e1	-0.043923263
151	0x3d781205	0.06056406
152	0xbd91c140	-0.07116938
153	0xbd2ab722	-0.041678555
154	0xbdb0d305	-0.08633999
155	0xbd0fad4b	-0.035077374
156	0xbc111502	-0.008855106
157	0xbd98fe73	-0.07470407
158	0x3d4c0ae5	0.049815077
159	0x3c93ab23	0.01802594
160	0xbd1b6c1c	-0.037944898
161	0x3c7aa781	0.015298725
162	0x3d65a350	0.05606395
163	0xbda85fab	-0.08221372
164	0xbcfb6714	-0.0306888
165	0xbb936b56	-0.0044988794
166	0xbcbe9207	-0.02326299
167	0xbd18f08f	-0.03733879
168	0x3ce1956c	0.02753707
169	0xbcd37e6c	-0.025817119
170	0xbdc6d751	-0.09709037
171	0x3ab9654c	0.0014144569
172	0xbda40ae1	-0.080098875
173	0xbdd85a58	-0.10564107
174	0xbdba3489	-0.090920515
175	0xbdc88aa9	-0.09792072
176	0x3d25f9a8	0.040521294
177	0xbc13da19	-0.0090241665
178	0xbd92e710	-0.07172978
179	0xbda74922	-0.08168246
180	0x3da49b6d	0.080374576
181	0x3e85a57f	0.26102826
182	0x3e758821	0.2397771
183	0xbe04cce3	-0.12968783
184	0x3ec53cf6	0.38523072
185	0xbd529cae	-0.051418953
186	0x3ddb2057	0.10699528
187	0xbe1986df	-0.14992855
188	0xbe6f83dd	-0.23390146
189	0x3d1dd7c0	0.038535833
190	0xbca926b6	-0.020648342
191	0xbe080131	-0.13281704
192	0x3d5a9026	0.053360127
193	0xbdf885ff	-0.12134933
194	0xbbb9766d	-0.0056598694
195	0xbc322374	-0.0108727105
196	0xbcd21cf7	-0.025648577
197	0xbda8d3d0	-0.08243525
198	0xbd64d9ea	-0.05587188
199	0xbdcc1d59	-0.09966535
200	0xbd0d2bfa	-0.034465767
201	0xbdbd718d	-0.09250174
202	0xbd06c010	-0.03289801
203	0xbda46580	-0.08027172
204	0xbbbcb345	-0.0057586753
205	0xbc99739d	-0.018731887
206	0x3d85c72c	0.0653213
207	0x3c07d22a	0.008289853
208	0xbe32883d	-0.17434783
209	0xbe7009a9	-0.23441185
210	0x3c40acec	0.011759978
211	0xbc8c5ea9	-0.017134981
212	0x3cc93ed9	0.0245661
213	0x3bc7959e	0.006090834
214	0x3e632be9	0.22184719
215	0x3e4656b1	0.19369008
216	0xbd8bae0f	-0.068203084
217	0x3d773145	0.06034972
218	0x3f01c30e	0.50688255
219	0x3e37a272	0.17933062
220	0xbe2b05af	-0.16701387
221	0x3c3daf2c	0.011577409
222	0xbe83cf61	-0.25744155
223	0xbebe512b	-0.371713
224	0xbe06a226	-0.13147792
225	0x3eeabc25	0.45846668
226	0x3eacaf31	0.3372741
227	0x3e9beaf0	0.3045268
228	0xbe3f5392	-0.18684223
229	0xbe72ac57	-0.23698555
230	0x3e2e0ac3	0.16996293
231	0xbe970bef	-0.29501292
232	0xbf019c22	-0.50628865
233	0x3e549961	0.20761634
234	0x3df894cb	0.12137755
235	0x3e19ef67	0.15032731
236	0xbca7b541	-0.02047217
237	0xbe0747a5	-0.13210924
238	0xbb4effe1	-0.0031585621
239	0xbd7c7fad	-0.0616452
240	0xbc976a0e	-0.018483188
241	0xbda7d175	-0.08194248
242	0xbe433b06	-0.19065484
243	0x3d99c369	0.07507975
244	0xbc1cfc81	-0.009581686
245	0xb9c26e6b	-0.0003708483
246	0xbcf2dd9f	-0.029646693
247	0x3db91bbe	0.090384945
248	0x3d9ed844	0.07756093
249	0x3dc89844	0.09794667
250	0x3d93d633	0.0721859
251	0xbd5e8407	-0.05432513
252	0xbda0bf02	-0.07848932
253	0xbe876bc8	-0.26449418
254	0xbecc7654	-0.39934027
255	0xbd083e9d	-0.033262838

conv_block_2.0.bias f4 [10]
0	0x3e8ff658	0.28117633
1	0xbd507d33	-0.05090065
2	0x3db29033	0.0871891
3	0x3e6b6892	0.22989109
4	0x3ed1499d	0.40876475
5	0xbe163ee0	-0.14672422
6	0xbe8edab7	-0.2790124
7	0x3e12384d	0.1427929
8	0x3e149825	0.14511164
9	0xbe45e13b	-0.193242

conv_block_2.2.weight f4 [10, 10, 3, 3]
0	0x3cfa52e3	0.030557102
1	0xbe99a34c	-0.30007398
2	0xbdbb7d98	-0.091548145
3	0xbe1dcea6	-0.15410861
4	0xbd8a7ee7	-0.06762486
5	0x3e56a096	0.20959696
6	0x3e28cf88	0.16485417
7	0x3dc36f22	0.09542681
8	0xbdac18ff	-0.08403205
9	0x3de0ebe7	0.10982495
10	0x3d616525	0.0550281
11	0x3d9ed707	0.07755857
12	0xbd47eb32	-0.048808284
13	0x3c3a5309	0.011372336
14	0x3d8ee05b	0.06976386
15	0x3d7cb8c3	0.06169964
16	0xbcef8023	-0.029235905
17	0xbd8a56cd	-0.06754837
18	0xbe6ecd65	-0.2332054
19	0xbf01b337	-0.50664085
20	0xbeba377b	-0.36370453
21	0xbe5f27ff	-0.21792601
22	0xbe622756	-0.22085318
23	0xbddb1993	-0.10698237
24	0x3e693006	0.22772226
25	0x3e0abc20	0.13548326
26	0xbe122137	-0.14270483
27	0xbeeb5dc7	-0.45969984
28	0xbedce076	-0.4314
29	0xbcf0c130	-0.029388994
30	0xbe6a0b3c	-0.22855848
31	0xbda20fc6	-0.07913165
32	0x3c0010d5	0.007816513
33	0xbd6e51f0	-0.05818361
34	0xbe4651a0	-0.19367075
35	0xbec21aa7	-0.3791096
36	0xbe62caf8	-0.22147739
37	0xbe53d29a	-0.20685807
38	0xbe90fe96	-0.28319234
39	0x3ec01b0f	0.37520644
40	0xbd1a7ebe	-0.037718527
41	0xbe956c9d	-0.29184428
42	0xbd9c98a6	-0.07646303
43	0xbef3dc35	-0.47628942
44	0xbf2cf638	-0.675632
45	0xbe5fdce5	-0.21861608
46	0x3e0f5208	0.13996136
47	0x3bf9af63	0.0076197847
48	0x3e8aedc0	0.27134514
49	0x3eb34111	0.3501058
50	0xbeb6788d	-0.35638848
51	0xbe28e0ae	-0.16491958
52	0xbe6877ba	-0.22701922
53	0xbead7ea4	-0.33885682
54	0xbe7ff05a	-0.2499403
55	0xbe68902f	-0.22711252
56	0xbd157cb2	-0.03649587
57	0x3d892b97	0.06697767
58	0x3d72e44c	0.059299752
59	0x3d4a9105	0.049454708
60	0x3c32f78a	0.010923276
61	0xbd763607	-0.06011012
62	0xbe4a500f	-0.19757102
63	0xbe8c5967	-0.2741196
64	0xbde6f815	-0.11277787
65	0x3f27ba32	0.65518486
66	0x3e860aa3	0.2617999
67	0x3ec5c10a	0.3862384
68	0xbe602bdf	-0.21891735
69	0xbed4b35b	-0.41543087
70	0xbf015401	-0.50518805
71	0xbf11cd78	-0.56954145
72	0xbc56f819	-0.0131206745
73	0xbd7edd45	-0.062222738
74	0xbc831563	-0.016001409
75	0xbd9bdefa	-0.07610889
76	0xbe3823d5	-0.17982419
77	0xbdcf78fc	-0.10130498
78	0xbc26e561	-0.010186524
79	0xbc037bcd	-0.008025122
80	0xbd18427d	-0.037172783
81	0xbd8fefcf	-0.07028162
82	0xbdc28419	-0.09497852
83	0xbdbf1616	-0.093303844
84	0xbe1dba9b	-0.15403216
85	0xbd1c8a6f	-0.038217958
86	0x3d4405f6	0.047857247
87	0x3ca080db	0.019592693
88	0x3e50080b	0.20315568
89	0x3d8d8208	0.06909567
90	0xbe68caab	-0.22733562
91	0xbed2ff13	-0.4121023
92	0xbeaade58	-0.3337276
93	0xbd8201cd	-0.06348
94	0x3e11a1d7	0.14221893
95	0xbdb6a271	-0.08917702
96	0x3d2e3c3f	0.042537924
97	0x3d0be76c	0.034156248
98	0x3e1d1ac3	0.1534224
99	0xbdb856f2	-0.090009585
100	0xbdb8e24d	-0.090275384
101	0xbd2b6ce7	-0.041851904
102	0xbdb9b188	-0.090670645
103	0xbd7ad5c6	-0.061239026
104	0xbd9edf57	-0.077574424
105	0xbdc8fec1	-0.098142155
106	0xbd218070	-0.03942913
107	0x3d4c2b3b	0.049845915
108	0xbe0e47eb	-0.13894622
109	0x3e3539c9	0.17697825
110	0xbe9e75ed	-0.30949345
111	0x3cedd8e8	0.029034093
112	0xbd6c2bcc	-0.057658955
113	0x3dbaa939	0.09114308
114	0xbe13c0ba	-0.14428988
115	0xbe562fd6	-0.20916685
116	0x3d406521	0.046971444
117	0xbd0864ce	-0.03329926
118	0xbd8b904b	-0.06814631
119	0x3ec973df	0.39346215
120	0xbe9be301	-0.30446628
121	0x3dc03676	0.093853876
122	0x3f12a899	0.5728851
123	0x3cdff745	0.027339587
124	0x3c771f98	0.015083216
125	0xbe93cb39	-0.28865984
126	0x3caf3808	0.021389022
127	0xbeade1ba	-0.33961278
128	0x3e756863	0.23965602
129	0xbe6c70a7	-0.23089848
130	0xbf02af6e	-0.51048934
131	0xbdab99a5	-0.08378915
132	0x3de8e570	0.11371887
133	0xbe560df5	-0.20903762
134	0x3e058293	0.13038091
135	0x3d1bdf2e	0.038054638
136	0x3c502ff3	0.0127067445
137	0xbe0a037b	-0.1347789
138	0x3dfbfc22	0.1230395
139	0x3bf1171a	0.0073574902
140	0xbe297e07	-0.16551982
141	0x3d93816c	0.0720242
142	0xbecbb1ce	-0.39784092
143	0xbe2bd7ad	-0.16781493
144	0xbd431e40	-0.04763627
145	0xbdf6886e	-0.12037741
146	0xbe63a941	-0.22232534
147	0x3e9ab6be	0.30217546
148	0x3e567c8f	0.20945953
149	0xbd850ca4	-0.06496552
150	0x3e7f4889	0.24930014
151	0x3dd4ad2e	0.10384594
152	0xbcb36f4b	-0.021903655
153	0x3da62d46	0.08114104
154	0x3de112c0	0.109899044
155	0x3e567a44	0.20945078
156	0x3df43939	0.11924977
157	0xbe477a7f	-0.19480322
158	0xbed3f41d	-0.4139718
159	0x3e05f888	0.13083088
160	0xbe4df4c0	-0.20112896
161	0xbe89ab7c	-0.26888645
162	0x3d811ac5	0.06303934
163	0xbd1590bf	-0.036514994
164	0xbdea555f	-0.114420645
165	0x3b688597	0.0035480016
166	0x3d3e4186	0.046449207
167	0x3cddf541	0.027094485
168	0x3e80afea	0.25134212
169	0xbdd6202a	-0.104553536
170	0x3d8236b5	0.06358091
171	0x3e9135a5	0.2836124
172	0x3d9d5cf4	0.07683745
173	0xbee78281	-0.45216754
174	0x3db6a251	0.08917678
175	0xbea8b74a	-0.32952338
176	0xbe64d391	-0.22346331
177	0xbe013067	-0.1261612
178	0xbde05f70	-0.10955703
179	0xbe9116ab	-0.28337607
180	0xbe084497	-0.13307415
181	0xbe624d5e	-0.22099826
182	0x3ea79c5f	0.3273649
183	0xbe111638	-0.14168632
184	0xbca186ad	-0.019717539
185	0x3e450108	0.19238675
186	0x3cfa8395	0.030580321
187	0xbe09d6a7	-0.1346079
188	0xbd7194c9	-0.058979783
189	0xbcc2de03	-0.023787504
190	0x3d9fb6e2	0.07798554
191	0x3d215b47	0.03939369
192	0xbdd21e8c	-0.102597326
193	0x3c75fc99	0.015013837
194	0x3d458301	0.04822064
195	0x3dad93ea	0.08475478
196	0xbd1b4575	-0.037908036
197	0xbdd0be91	-0.10192598
198	0xbe022a46	-0.12711439
199	0xbeab36e6	-0.33440322
200	0xbea3104e	-0.31848377
201	0xbe45e9d9	-0.19327487
202	0xbea66799	-0.32500914
203	0xbe461d90	-0.19347215
204	0xbe600756	-0.21877798
205	0xbe2238ac	-0.15841931
206	0xbeaa68e1	-0.3328314
207	0xbea57caf	-0.3232169
208	0xbea0edc1	-0.31431392
209	0xba8d6e72	-0.0010790362
210	0xbe99ed56	-0.30063885
211	0x3bd85ef8	0.006603118
212	0xbe262ed0	-0.16228795
213	0xbe8f5dc2	-0.2800122
214	0xbe83b7f7	-0.25726292
215	0xbe935869	-0.2877839
216	0x3d422689	0.04740003
217	0xbf358731	-0.7090941
218	0xbf130c22	-0.5744039
219	0xbe846956	-0.25861615
220	0xbe95950f	-0.29215285
221	0x3e2d9839	0.169526
222	0xbf11b8bc	-0.5692251
223	0xbe4ab295	-0.19794686
224	0x3f218fd3	0.63110083
225	0x3d943f8e	0.072386846
226	0xbec7de9c	-0.39037025
227	0xbb9fb550	-0.004873909
228	0xbe058c88	-0.1304189
229	0xbe427881	-0.18991281
230	0xbca13f50	-0.01968351
231	0xbd1f8ecc	-0.03895454
232	0xbd6ed2be	-0.05830645
233	0x3c9c84fb	0.019106379
234	0xbdcec7d0	-0.10096705
235	0xbdcc8501	-0.09986306
236	0xbd28a168	-0.041169554
237	0xbdb0501d	-0.086090304
238	0xbc159a7c	-0.00913107
239	0x3e66f4d6	0.22554335
240	0x3d741200	0.05958748
241	0xbd3def68	-0.046370894
242	0x3db34367	0.0875309
243	0xbe976028	-0.2956555
244	0x3d4f67c3	0.050636064
245	0x3eec0d9d	0.46104136
246	0x3da50761	0.08058048
247	0x3e63500b	0.22198503
248	0x3c0351e0	0.008015126
249	0x3e9a204e	0.30102772
250	0x3e17e13d	0.14832015
251	0xbee61128	-0.44934964
252	0x3dec7b8f	0.115470044
253	0xbc521810	-0.01282312
254	0x3bb084a2	0.005386905
255	0x3d136a03	0.035989773

conv_block_2.2.bias f4 [10]
0	0x3deccbad	0.115622856
1	0x3e1c441a	0.15260354
2	0x3e190280	0.1494236
3	0xbe21b8e7	-0.15793191
4	0xbe06a731	-0.13149716
5	0x3bdd3608	0.006750826
6	0x3d0bcaef	0.03412908
7	0xbdce8f9f	-0.10085987
8	0xbd28e1d9	-0.04123101
9	0xbdca986e	-0.09892355

classifier.1.weight f4 [10, 490]
0	0xbdbad75e	-0.09123109
1	0x3e31543e	0.17317292
2	0x3e4d3b86	0.20042238
3	0x3ec26ff4	0.37976038
4	0x3e83c54a	0.25736457
5	0xbd7986d4	-0.060919598
6	0x3e15a222	0.1461263
7	0xbdcfbe54	-0.10143724
8	0x3d186685	0.037207145
9	0x3c4c69cc	0.012476396
10	0x3de20ee6	0.11037998
11	0x3e42344a	0.18965259
12	0xbd6783a2	-0.05652202
13	0x3b956346	0.0045589535
14	0xbe76509c	-0.24054188
15	0xbc42da59	-0.011892878
16	0x3dc04a1b	0.093891345
17	0x3d04b250	0.032396615
18	0x3e11a765	0.14224012
19	0xbded3e40	-0.11584139
20	0xbdbe8e71	-0.09304512
21	0xbe13ccea	-0.14433637
22	0xbe30f3ae	-0.17280456
23	0xbdad7162	-0.08468892
24	0xbedaaa6a	-0.4270814
25	0xbebcf520	-0.36905766
26	0x3dbbe081	0.0917368
27	0xbca4cdbc	-0.020117633
28	0xbd28a1e8	-0.04117003
29	0xbdaf988a	-0.085740164
30	0xbde44680	-0.11146259
31	0xbdf75daa	-0.12078412
32	0x3e18799f	0.14890145
33	0x3e1e9694	0.15487128
34	0x3caee459	0.021349119
35	0x3c8f8532	0.017519567
36	0x3dca0b74	0.09865466
37	0x3d555169	0.052079592
38	0x3e32b9ea	0.17453733
39	0x3d25972d	0.040427376
40	0xbb9bddff	-0.0047566886
41	0xb927e82b	-0.0001601285
42	0xbcee62b3	-0.029099798
43	0x3dc69543	0.09696438
44	0xbc8f5133	-0.017494773
45	0xbd1c782d	-0.038200546
46	0xbcbd5e36	-0.023116212
47	0xbca79f0f	-0.020461587
48	0x3dffc507	0.12488752
49	0xbd9a3f75	-0.07531635
50	0xbe301f70	-0.17199492
51	0x3e81b99f	0.2533693
52	0xbd58b55a	-0.052907325
53	0x3e757b46	0.23972806
54	0xbc99948a	-0.018747587
55	0x3cfc8488	0.030824915
56	0x3da27d26	0.079340264
57	0x3dc5872a	0.09644921
58	0x3e2982d2	0.1655381
59	0xbe42bef4	-0.19018155
60	0x3c93c5ee	0.018038716
61	0xbd57adf5	-0.052656133
62	0x3d0a47f3	0.033760022
63	0x3e90589b	0.281926
64	0x3e458487	0.19288836
65	0xbe61a746	-0.22036466
66	0xbe20bdf2	-0.15697458
67	0x3dac3fee	0.08410631
68	0x3e02c127	0.12768994
69	0xbd0e0727	-0.03467479
70	0x3d39e119	0.045380685
71	0x3d2b59bc	0.041833624
72	0x3c735110	0.01485087
73	0xbe1b9daa	-0.15196863
74	0x3d9833fa	0.07431789
75	0x3e4b5bd9	0.19859256
76	0xbd0450de	-0.032303683
77	0xbcd6e77f	-0.026233433
78	0x3d83c9e6	0.064349934
79	0x3e526f95	0.20550378
80	0xbe67cfc4	-0.2263785
81	0xbdce85ec	-0.10084137
82	0x3e86b75a	0.2631176
83	0x3e4f28bd	0.20230384
84	0xbe5e924d	-0.21735497
85	0x3e4e96ce	0.20174715
86	0x3ac5f13e	0.0015101803
87	0xbea7ec26	-0.32797354
88	0xbdeec0a5	-0.11657838
89	0x3cf4677f	0.029834507
90	0x3d258256	0.0404075
91	0xbea36b85	-0.31917968
92	0x3f0c20f0	0.5473776
93	0xbca43676	-0.0200455
94	0xbe5fdd72	-0.21861818
95	0xbe4b6804	-0.19863898
96	0xbed6efdf	-0.41979882
97	0x3db88b3c	0.09010932
98	0x3d6ed171	0.058305208
99	0x3dfd2a04	0.123615295
100	0xbea6d5ea	-0.32585078
101	0xbd9f45dc	-0.077769965
102	0x3ddc2327	0.10748892
103	0x3cf05c47	0.029340876
104	0x3dacc555	0.084360756
105	0x3e1bed6f	0.15227292
106	0xbd95bc1e	-0.07311271
107	0xbe3fbf28	-0.18725264
108	0xbd965fca	-0.07342489
109	0x3e2b7f7f	0.16747855
110	0xbd50b47d	-0.050953377
111	0xbdabb0d4	-0.08383337
112	0xbd571992	-0.05251462
113	0x3e101bc1	0.14073087
114	0xbe507491	-0.20356967
115	0x3c146de7	0.009059406
116	0xbb7954cf	-0.0038044935
117	0x3daa5206	0.08316426
118	0x3d048f5f	0.03236329
119	0xbd9850ee	-0.07437311
120	0x3e021e5a	0.1270689
121	0xbd2ec8a6	-0.042671822
122	0xbe451311	-0.19245555
123	0x3e40c9f4	0.18827039
124	0x3e1bbedd	0.15209527
125	0x3d43e3eb	0.04782478
126	0xbbd0d9bc	-0.006373612
127	0x3d917a3b	0.07103392
128	0xbd25bd7c	-0.04046391
129	0xbc59fda8	-0.013305105
130	0xbe179ec1	-0.14806654
131	0x3e268a13	0.16263609
132	0x3cc10b81	0.023565056
133	0x3cb77f10	0.022399455
134	0xbdb72be4	-0.08943918
135	0xbe2e9f51	-0.17052962
136	0xbe22c3c3	-0.1589499
137	0xbdb08f72	-0.0862111
138	0x3df80a8f	0.12111389
139	0xbe27e55b	-0.16396086
140	0xbc8ea120	-0.017410815
141	0x3c937fee	0.018005338
142	0xbcfcb3ad	-0.030847395
143	0xbdc3a3d4	-0.09552732
144	0xbc0df5d8	-0.008664571
145	0xbe44178e	-0.1914961
146	0x3c72faca	0.014830301
147	0x3dc5d5d7	0.09659927
148	0x3d6f9be7	0.05849829
149	0xbd8625b5	-0.06550161
150	0x3cf4c315	0.029878179
151	0xbd9403c9	-0.072272845
152	0x3e1aaaf4	0.15104276
153	0xbbe741ac	-0.0070573892
154	0x3c53e076	0.012931934
155	0x3e3d1d98	0.1846832
156	0xbdc1f837	-0.09471171
157	0x3e3251e9	0.17414059
158	0x3d984c7e	0.07436465
159	0x3dc6fefa	0.09716602
160	0xbc446efb	-0.01198935
161	0x3e0f60b0	0.14001727
162	0xbdfd507e	-0.12368868
163	0xbe395d36	-0.18101963
164	0x3e108ed1	0.1411698
165	0x3e31b575	0.17354377
166	0x3d9a45a5	0.07532815
167	0x3d025dbb	0.03182767
168	0x3e4701b1	0.19434239
169	0xbdefe0f6	-0.1171283
170	0xbe847520	-0.2587061
171	0x3db62271	0.08893288
172	0x3d89db20	0.06731248
173	0xbd9a4f6c	-0.0753468
174	0xbcc3f54a	-0.023920674
175	0x3c976795	0.018482009
176	0xbe029335	-0.12751468
177	0xbdb3ff72	-0.08788957
178	0xbc8578d0	-0.01629296
179	0x3e12515c	0.14288849
180	0x3d9a0aba	0.07521577
181	0x3d09a66e	0.033605985
182	0xbe456ac6	-0.19279012
183	0xbe80d4e3	-0.2516242
184	0x3d852a8b	0.06502255
185	0x3dd581fd	0.10425184
186	0x3e01d341	0.12678243
187	0x3db4b617	0.088237934
188	0xba91f6fd	-0.001113623
189	0xbe0c5f1f	-0.13708161
190	0x3dfe9441	0.12430621
191	0x3e9070de	0.2821111
192	0xbdc034ae	-0.09385048
193	0xbd65a10a	-0.056061782
194	0x3e14c4bd	0.14528175
195	0x3d9cb2dd	0.07651303
196	0x3cc3a5d7	0.02388279
197	0xbcf98b90	-0.030462056
198	0xbdd65120	-0.10464692
199	0x3bf276c5	0.0073994123
200	0xbd3abd3d	-0.045590628
201	0x3de84615	0.11341492
202	0x3b3fbf7c	0.002925842
203	0xbd044fe4	-0.032302752
204	0xbe1f47a9	-0.1555468
205	0xbe301326	-0.17194805
206	0x3dc5eb15	0.09663979
207	0x3e5d429a	0.21607438
208	0x3e326a8c	0.17423457
209	0xbd8622b6	-0.06549589
210	0xbc20ac06	-0.009806639
211	0xbe21da00	-0.15805817
212	0xbe02c828	-0.12771666
213	0x3d25901f	0.040420648
214	0x3e78eb0c	0.24308413
215	0x3e4f314d	0.2023365
216	0xbd245652	-0.040121384
217	0xbdc7ec57	-0.09761875
218	0xbdb6709f	-0.089081995
219	0xbe2122f1	-0.15735985
220	0xbe8a6729	-0.2703183
221	0xbce0e0d5	-0.027450958
222	0x3e3c6097	0.18396221
223	0x3ca1ec6c	0.019766055
224	0xbde71604	-0.11283496
225	0xbbe53e2e	-0.006995938
226	0x3c5aeef5	0.013362636
227	0xbd25706c	-0.040390417
228	0xbe7744ee	-0.24147388
229	0xbdadc95d	-0.084856726
230	0xbcbee8b9	-0.02330433
231	0xbd64b1bf	-0.055833574
232	0xbbeadc5f	-0.0071673836
233	0x3e3b38bc	0.18283361
234	0x3e6f7a59	0.23386516
235	0xbe963183	-0.2933465
236	0xbe83d2df	-0.2574682
237	0xbdcb77af	-0.09934937
238	0x3d7c993b	0.06166957
239	0xbcb47968	-0.022030547
240	0x3e00d1df	0.1258006
241	0x3d957e45	0.072994746
242	0xbdb262e4	-0.08710268
243	0xbd48b593	-0.049001288
244	0xbd1e8798	-0.03870353
245	0xbd30b41b	-0.043140512
246	0x3d4d5d48	0.050137788
247	0x3de1b746	0.11021285
248	0x3d1711aa	0.03688208
249	0xbe0f0a99	-0.13968886
250	0x3e7295c1	0.23689939
251	0xbcb73b9b	-0.02236729
252	0xbe186e49	-0.1488582
253	0x3e1c5b3a	0.15269175
254	0xbcf1d4ea	-0.02952047
255	0xbe3c0de3	-0.18364672

classifier.1.bias f4 [10]
0	0x3e1cc2ff	0.1530876
1	0x3c93bfe5	0.018035838
2	0x3e013f3b	0.12621777
3	0x3debd524	0.11515263
4	0xbed94953	-0.42438754
5	0xbe0a806f	-0.13525556
6	0x3d0d8cc8	0.034558088
7	0x3e81aac9	0.2532561
8	0x3da86f57	0.082243614
9	0xbe3587fb	-0.17727654
